INFO:root:model arch:
 Transformer(
  (encoder): Encoder(
    (layers): ModuleList(
      (0): EncoderLayer(
        (self_attn): MultiHeadedAttention(
          (linears): ModuleList(
            (0): Linear(in_features=512, out_features=512, bias=True)
            (1): Linear(in_features=512, out_features=512, bias=True)
            (2): Linear(in_features=512, out_features=512, bias=True)
            (3): Linear(in_features=512, out_features=512, bias=True)
          )
          (dropout): Dropout(p=0.1, inplace=False)
        )
        (feed_forward): PositionwiseFeedForward(
          (w_1): Linear(in_features=512, out_features=1024, bias=True)
          (w_2): Linear(in_features=1024, out_features=512, bias=True)
          (dropout): Dropout(p=0.1, inplace=False)
        )
        (sublayer): ModuleList(
          (0): SublayerConnection(
            (norm): LayerNorm()
            (dropout): Dropout(p=0.1, inplace=False)
          )
          (1): SublayerConnection(
            (norm): LayerNorm()
            (dropout): Dropout(p=0.1, inplace=False)
          )
        )
      )
      (1): EncoderLayer(
        (self_attn): MultiHeadedAttention(
          (linears): ModuleList(
            (0): Linear(in_features=512, out_features=512, bias=True)
            (1): Linear(in_features=512, out_features=512, bias=True)
            (2): Linear(in_features=512, out_features=512, bias=True)
            (3): Linear(in_features=512, out_features=512, bias=True)
          )
          (dropout): Dropout(p=0.1, inplace=False)
        )
        (feed_forward): PositionwiseFeedForward(
          (w_1): Linear(in_features=512, out_features=1024, bias=True)
          (w_2): Linear(in_features=1024, out_features=512, bias=True)
          (dropout): Dropout(p=0.1, inplace=False)
        )
        (sublayer): ModuleList(
          (0): SublayerConnection(
            (norm): LayerNorm()
            (dropout): Dropout(p=0.1, inplace=False)
          )
          (1): SublayerConnection(
            (norm): LayerNorm()
            (dropout): Dropout(p=0.1, inplace=False)
          )
        )
      )
      (2): EncoderLayer(
        (self_attn): MultiHeadedAttention(
          (linears): ModuleList(
            (0): Linear(in_features=512, out_features=512, bias=True)
            (1): Linear(in_features=512, out_features=512, bias=True)
            (2): Linear(in_features=512, out_features=512, bias=True)
            (3): Linear(in_features=512, out_features=512, bias=True)
          )
          (dropout): Dropout(p=0.1, inplace=False)
        )
        (feed_forward): PositionwiseFeedForward(
          (w_1): Linear(in_features=512, out_features=1024, bias=True)
          (w_2): Linear(in_features=1024, out_features=512, bias=True)
          (dropout): Dropout(p=0.1, inplace=False)
        )
        (sublayer): ModuleList(
          (0): SublayerConnection(
            (norm): LayerNorm()
            (dropout): Dropout(p=0.1, inplace=False)
          )
          (1): SublayerConnection(
            (norm): LayerNorm()
            (dropout): Dropout(p=0.1, inplace=False)
          )
        )
      )
      (3): EncoderLayer(
        (self_attn): MultiHeadedAttention(
          (linears): ModuleList(
            (0): Linear(in_features=512, out_features=512, bias=True)
            (1): Linear(in_features=512, out_features=512, bias=True)
            (2): Linear(in_features=512, out_features=512, bias=True)
            (3): Linear(in_features=512, out_features=512, bias=True)
          )
          (dropout): Dropout(p=0.1, inplace=False)
        )
        (feed_forward): PositionwiseFeedForward(
          (w_1): Linear(in_features=512, out_features=1024, bias=True)
          (w_2): Linear(in_features=1024, out_features=512, bias=True)
          (dropout): Dropout(p=0.1, inplace=False)
        )
        (sublayer): ModuleList(
          (0): SublayerConnection(
            (norm): LayerNorm()
            (dropout): Dropout(p=0.1, inplace=False)
          )
          (1): SublayerConnection(
            (norm): LayerNorm()
            (dropout): Dropout(p=0.1, inplace=False)
          )
        )
      )
      (4): EncoderLayer(
        (self_attn): MultiHeadedAttention(
          (linears): ModuleList(
            (0): Linear(in_features=512, out_features=512, bias=True)
            (1): Linear(in_features=512, out_features=512, bias=True)
            (2): Linear(in_features=512, out_features=512, bias=True)
            (3): Linear(in_features=512, out_features=512, bias=True)
          )
          (dropout): Dropout(p=0.1, inplace=False)
        )
        (feed_forward): PositionwiseFeedForward(
          (w_1): Linear(in_features=512, out_features=1024, bias=True)
          (w_2): Linear(in_features=1024, out_features=512, bias=True)
          (dropout): Dropout(p=0.1, inplace=False)
        )
        (sublayer): ModuleList(
          (0): SublayerConnection(
            (norm): LayerNorm()
            (dropout): Dropout(p=0.1, inplace=False)
          )
          (1): SublayerConnection(
            (norm): LayerNorm()
            (dropout): Dropout(p=0.1, inplace=False)
          )
        )
      )
      (5): EncoderLayer(
        (self_attn): MultiHeadedAttention(
          (linears): ModuleList(
            (0): Linear(in_features=512, out_features=512, bias=True)
            (1): Linear(in_features=512, out_features=512, bias=True)
            (2): Linear(in_features=512, out_features=512, bias=True)
            (3): Linear(in_features=512, out_features=512, bias=True)
          )
          (dropout): Dropout(p=0.1, inplace=False)
        )
        (feed_forward): PositionwiseFeedForward(
          (w_1): Linear(in_features=512, out_features=1024, bias=True)
          (w_2): Linear(in_features=1024, out_features=512, bias=True)
          (dropout): Dropout(p=0.1, inplace=False)
        )
        (sublayer): ModuleList(
          (0): SublayerConnection(
            (norm): LayerNorm()
            (dropout): Dropout(p=0.1, inplace=False)
          )
          (1): SublayerConnection(
            (norm): LayerNorm()
            (dropout): Dropout(p=0.1, inplace=False)
          )
        )
      )
    )
    (norm): LayerNorm()
  )
  (decoder): Decoder(
    (layers): ModuleList(
      (0): DecoderLayer(
        (self_attn): MultiHeadedAttention(
          (linears): ModuleList(
            (0): Linear(in_features=512, out_features=512, bias=True)
            (1): Linear(in_features=512, out_features=512, bias=True)
            (2): Linear(in_features=512, out_features=512, bias=True)
            (3): Linear(in_features=512, out_features=512, bias=True)
          )
          (dropout): Dropout(p=0.1, inplace=False)
        )
        (src_attn): MultiHeadedAttention(
          (linears): ModuleList(
            (0): Linear(in_features=512, out_features=512, bias=True)
            (1): Linear(in_features=512, out_features=512, bias=True)
            (2): Linear(in_features=512, out_features=512, bias=True)
            (3): Linear(in_features=512, out_features=512, bias=True)
          )
          (dropout): Dropout(p=0.1, inplace=False)
        )
        (feed_forward): PositionwiseFeedForward(
          (w_1): Linear(in_features=512, out_features=1024, bias=True)
          (w_2): Linear(in_features=1024, out_features=512, bias=True)
          (dropout): Dropout(p=0.1, inplace=False)
        )
        (sublayer): ModuleList(
          (0): SublayerConnection(
            (norm): LayerNorm()
            (dropout): Dropout(p=0.1, inplace=False)
          )
          (1): SublayerConnection(
            (norm): LayerNorm()
            (dropout): Dropout(p=0.1, inplace=False)
          )
          (2): SublayerConnection(
            (norm): LayerNorm()
            (dropout): Dropout(p=0.1, inplace=False)
          )
        )
      )
      (1): DecoderLayer(
        (self_attn): MultiHeadedAttention(
          (linears): ModuleList(
            (0): Linear(in_features=512, out_features=512, bias=True)
            (1): Linear(in_features=512, out_features=512, bias=True)
            (2): Linear(in_features=512, out_features=512, bias=True)
            (3): Linear(in_features=512, out_features=512, bias=True)
          )
          (dropout): Dropout(p=0.1, inplace=False)
        )
        (src_attn): MultiHeadedAttention(
          (linears): ModuleList(
            (0): Linear(in_features=512, out_features=512, bias=True)
            (1): Linear(in_features=512, out_features=512, bias=True)
            (2): Linear(in_features=512, out_features=512, bias=True)
            (3): Linear(in_features=512, out_features=512, bias=True)
          )
          (dropout): Dropout(p=0.1, inplace=False)
        )
        (feed_forward): PositionwiseFeedForward(
          (w_1): Linear(in_features=512, out_features=1024, bias=True)
          (w_2): Linear(in_features=1024, out_features=512, bias=True)
          (dropout): Dropout(p=0.1, inplace=False)
        )
        (sublayer): ModuleList(
          (0): SublayerConnection(
            (norm): LayerNorm()
            (dropout): Dropout(p=0.1, inplace=False)
          )
          (1): SublayerConnection(
            (norm): LayerNorm()
            (dropout): Dropout(p=0.1, inplace=False)
          )
          (2): SublayerConnection(
            (norm): LayerNorm()
            (dropout): Dropout(p=0.1, inplace=False)
          )
        )
      )
      (2): DecoderLayer(
        (self_attn): MultiHeadedAttention(
          (linears): ModuleList(
            (0): Linear(in_features=512, out_features=512, bias=True)
            (1): Linear(in_features=512, out_features=512, bias=True)
            (2): Linear(in_features=512, out_features=512, bias=True)
            (3): Linear(in_features=512, out_features=512, bias=True)
          )
          (dropout): Dropout(p=0.1, inplace=False)
        )
        (src_attn): MultiHeadedAttention(
          (linears): ModuleList(
            (0): Linear(in_features=512, out_features=512, bias=True)
            (1): Linear(in_features=512, out_features=512, bias=True)
            (2): Linear(in_features=512, out_features=512, bias=True)
            (3): Linear(in_features=512, out_features=512, bias=True)
          )
          (dropout): Dropout(p=0.1, inplace=False)
        )
        (feed_forward): PositionwiseFeedForward(
          (w_1): Linear(in_features=512, out_features=1024, bias=True)
          (w_2): Linear(in_features=1024, out_features=512, bias=True)
          (dropout): Dropout(p=0.1, inplace=False)
        )
        (sublayer): ModuleList(
          (0): SublayerConnection(
            (norm): LayerNorm()
            (dropout): Dropout(p=0.1, inplace=False)
          )
          (1): SublayerConnection(
            (norm): LayerNorm()
            (dropout): Dropout(p=0.1, inplace=False)
          )
          (2): SublayerConnection(
            (norm): LayerNorm()
            (dropout): Dropout(p=0.1, inplace=False)
          )
        )
      )
      (3): DecoderLayer(
        (self_attn): MultiHeadedAttention(
          (linears): ModuleList(
            (0): Linear(in_features=512, out_features=512, bias=True)
            (1): Linear(in_features=512, out_features=512, bias=True)
            (2): Linear(in_features=512, out_features=512, bias=True)
            (3): Linear(in_features=512, out_features=512, bias=True)
          )
          (dropout): Dropout(p=0.1, inplace=False)
        )
        (src_attn): MultiHeadedAttention(
          (linears): ModuleList(
            (0): Linear(in_features=512, out_features=512, bias=True)
            (1): Linear(in_features=512, out_features=512, bias=True)
            (2): Linear(in_features=512, out_features=512, bias=True)
            (3): Linear(in_features=512, out_features=512, bias=True)
          )
          (dropout): Dropout(p=0.1, inplace=False)
        )
        (feed_forward): PositionwiseFeedForward(
          (w_1): Linear(in_features=512, out_features=1024, bias=True)
          (w_2): Linear(in_features=1024, out_features=512, bias=True)
          (dropout): Dropout(p=0.1, inplace=False)
        )
        (sublayer): ModuleList(
          (0): SublayerConnection(
            (norm): LayerNorm()
            (dropout): Dropout(p=0.1, inplace=False)
          )
          (1): SublayerConnection(
            (norm): LayerNorm()
            (dropout): Dropout(p=0.1, inplace=False)
          )
          (2): SublayerConnection(
            (norm): LayerNorm()
            (dropout): Dropout(p=0.1, inplace=False)
          )
        )
      )
      (4): DecoderLayer(
        (self_attn): MultiHeadedAttention(
          (linears): ModuleList(
            (0): Linear(in_features=512, out_features=512, bias=True)
            (1): Linear(in_features=512, out_features=512, bias=True)
            (2): Linear(in_features=512, out_features=512, bias=True)
            (3): Linear(in_features=512, out_features=512, bias=True)
          )
          (dropout): Dropout(p=0.1, inplace=False)
        )
        (src_attn): MultiHeadedAttention(
          (linears): ModuleList(
            (0): Linear(in_features=512, out_features=512, bias=True)
            (1): Linear(in_features=512, out_features=512, bias=True)
            (2): Linear(in_features=512, out_features=512, bias=True)
            (3): Linear(in_features=512, out_features=512, bias=True)
          )
          (dropout): Dropout(p=0.1, inplace=False)
        )
        (feed_forward): PositionwiseFeedForward(
          (w_1): Linear(in_features=512, out_features=1024, bias=True)
          (w_2): Linear(in_features=1024, out_features=512, bias=True)
          (dropout): Dropout(p=0.1, inplace=False)
        )
        (sublayer): ModuleList(
          (0): SublayerConnection(
            (norm): LayerNorm()
            (dropout): Dropout(p=0.1, inplace=False)
          )
          (1): SublayerConnection(
            (norm): LayerNorm()
            (dropout): Dropout(p=0.1, inplace=False)
          )
          (2): SublayerConnection(
            (norm): LayerNorm()
            (dropout): Dropout(p=0.1, inplace=False)
          )
        )
      )
      (5): DecoderLayer(
        (self_attn): MultiHeadedAttention(
          (linears): ModuleList(
            (0): Linear(in_features=512, out_features=512, bias=True)
            (1): Linear(in_features=512, out_features=512, bias=True)
            (2): Linear(in_features=512, out_features=512, bias=True)
            (3): Linear(in_features=512, out_features=512, bias=True)
          )
          (dropout): Dropout(p=0.1, inplace=False)
        )
        (src_attn): MultiHeadedAttention(
          (linears): ModuleList(
            (0): Linear(in_features=512, out_features=512, bias=True)
            (1): Linear(in_features=512, out_features=512, bias=True)
            (2): Linear(in_features=512, out_features=512, bias=True)
            (3): Linear(in_features=512, out_features=512, bias=True)
          )
          (dropout): Dropout(p=0.1, inplace=False)
        )
        (feed_forward): PositionwiseFeedForward(
          (w_1): Linear(in_features=512, out_features=1024, bias=True)
          (w_2): Linear(in_features=1024, out_features=512, bias=True)
          (dropout): Dropout(p=0.1, inplace=False)
        )
        (sublayer): ModuleList(
          (0): SublayerConnection(
            (norm): LayerNorm()
            (dropout): Dropout(p=0.1, inplace=False)
          )
          (1): SublayerConnection(
            (norm): LayerNorm()
            (dropout): Dropout(p=0.1, inplace=False)
          )
          (2): SublayerConnection(
            (norm): LayerNorm()
            (dropout): Dropout(p=0.1, inplace=False)
          )
        )
      )
    )
    (norm): LayerNorm()
  )
  (src_embed): Sequential(
    (0): Embeddings(
      (lut): Embedding(1435, 512)
    )
    (1): PositionalEncoding(
      (dropout): Dropout(p=0.1, inplace=False)
    )
  )
  (tgt_embed): Sequential(
    (0): Embeddings(
      (lut): Embedding(1237, 512)
    )
    (1): PositionalEncoding(
      (dropout): Dropout(p=0.1, inplace=False)
    )
  )
  (generator): Generator(
    (proj): Linear(in_features=512, out_features=1237, bias=True)
  )
)
INFO:root:epoch: 0, train_loss: 0.0196
INFO:root:epoch: 1, train_loss: 0.0169
INFO:root:epoch: 2, train_loss: 0.0157
INFO:root:epoch: 3, train_loss: 0.0147
INFO:root:epoch: 4, train_loss: 0.0138
INFO:root:epoch: 5, train_loss: 0.0131
INFO:root:epoch: 6, train_loss: 0.0125
INFO:root:epoch: 7, train_loss: 0.0116
INFO:root:epoch: 8, train_loss: 0.0108
…
